heuristic_net_demo.pt (torch, 24473 bytes, 5 tensors)

net.0.weight f4 [64, 16]
0	0xbe1771ad	-0.14789458
1	0x3e8beae6	0.2732765
2	0xbce82ea4	-0.028342552
3	0x3e8fad48	0.2806189
4	0xbe6d84fa	-0.23195258
5	0xbd9c0c35	-0.07619516
6	0x3e42be82	0.19017985
7	0xbe7c8a77	-0.24662195
8	0xbd406381	-0.046969894
9	0xbe01505c	-0.12628311
10	0xbd676c39	-0.056499694
11	0x3e7b5bdc	0.2454676
12	0xbd3204e9	-0.043461714
13	0xbd8588f4	-0.06520262
14	0x3db9e5fe	0.09077071
15	0x3e935117	0.28772804
16	0xbde5d686	-0.11222558
17	0x3b99ab27	0.0046895924
18	0x3e076873	0.13223438
19	0xbc8693e6	-0.016427945
20	0x3e1fd096	0.15606913
21	0x3e358ded	0.17729922
22	0x3b57a14c	0.0032902537
23	0xbe01bbb3	-0.12669258
24	0xbe59b6b6	-0.21261105
25	0xbbc853d5	-0.006113509
26	0x3d1c4552	0.038152047
27	0x3e129f5e	0.14318606
28	0xbdc6ebc0	-0.097129345
29	0x3d54aace	0.051920705
30	0xbda95949	-0.08268983
31	0x3deb366f	0.11484992
32	0xbd7beaca	-0.06150321
33	0x3e6b3dac	0.22972745
34	0xbdc74a48	-0.09730965
35	0x3d54c029	0.05194107
36	0xbdc3daa2	-0.09563185
37	0xbe08c134	-0.13354951
38	0x3e6193a4	0.22028977
39	0xbdf05284	-0.117344886
40	0xbda46a19	-0.08028049
41	0xbdfc4f54	-0.12319818
42	0xbdfd59f3	-0.12370672
43	0xbd83193f	-0.064013
44	0x3e238b17	0.15971027
45	0xbe5dc82e	-0.21658394
46	0xbce691a8	-0.028145626
47	0x3e1fea95	0.1561683
48	0x3e5ba398	0.21449125
49	0xbe5327f1	-0.20620705
50	0x3e4b5d47	0.19859801
51	0xbd8b27ff	-0.06794738
52	0xbe55ef2c	-0.20892018
53	0x3c2db7cc	0.010602903
54	0xbdb772fb	-0.08957478
55	0x3e5e8d5c	0.21733612
56	0x3e7f66da	0.24941579
57	0xbe00935f	-0.12556218
58	0x3d2d68d4	0.0423363
59	0xbda5ffdd	-0.08105443
60	0x3e8b7de1	0.27244475
61	0x3d929800	0.07157898
62	0xbe0c8b71	-0.13725068
63	0x3d8e57b6	0.06950323
64	0xbd23911f	-0.03993332
65	0x3e2a7df1	0.16649605
66	0xbe2b1e95	-0.16710885
67	0x3ead8b41	0.33895305
68	0x3e37a537	0.17934118
69	0x3e23cee8	0.15996897
70	0xbd9f2b4d	-0.07771931
71	0xbe79b50c	-0.2438547
72	0xbe868ca2	-0.2627917
73	0x3e550ec7	0.20806418
74	0xbdd76d83	-0.105189346
75	0xbdabf58f	-0.08396446
76	0xbe1c0a9d	-0.15238424
77	0xbdf53c5e	-0.11974405
78	0x3cfffd5d	0.031248743
79	0x3e37b160	0.17938757
80	0xbc876591	-0.016527923
81	0xbda72ef9	-0.08163256
82	0x3c5b6d80	0.013392806
83	0xbe7fabbf	-0.2496786
84	0xbdfc4348	-0.123175204
85	0xbe1e1c8d	-0.15440579
86	0xbe026305	-0.12733085
87	0x3e558a23	0.20853476
88	0x3e9391f7	0.288223
89	0x3e38ced1	0.18047644
90	0xbb5b3395	-0.0033447493
91	0xbe2dc2c4	-0.16968828
92	0x3e20858d	0.15675946
93	0x3e0e718e	0.13910505
94	0x3e5c62c1	0.21522047
95	0xbe5338f0	-0.20627189
96	0x3de6e597	0.112742595
97	0xbdd04e4c	-0.10171184
98	0xbe7101d1	-0.23535849
99	0x3e833846	0.2562887
100	0xbe07f8ee	-0.13278553
101	0x3e542c32	0.20719984
102	0xbe6a4ce3	-0.22880892
103	0xbdfb3ac8	-0.12267071
104	0xbe381c8f	-0.17979644
105	0x3dfec5c4	0.124400645
106	0x3ac5fe9e	0.0015105789
107	0xbd9219fc	-0.071338624
108	0xbe97b2a3	-0.29628477
109	0xbe632d83	-0.2218533
110	0x3dafc315	0.08582131
111	0x3d36949e	0.044575326
112	0xbc4f6267	-0.012657738
113	0x3df01159	0.11722059
114	0xbe3bc663	-0.18337397
115	0xbe8c7dc3	-0.274397
116	0x3e4fb323	0.20283179
117	0xbe4df70e	-0.20113775
118	0x3c9ae834	0.018909551
119	0x3c2abd81	0.010421158
120	0x3d4be7da	0.049781658
121	0xbdfd0ab8	-0.1235556
122	0x3dc40d5f	0.09572863
123	0xbc3ac94a	-0.01140053
124	0x3de3a77d	0.1111593
125	0x3de0d70b	0.10978516
126	0x3dffb2ca	0.12485273
127	0x3e0a8dc0	0.13530636
128	0xbd70e9dc	-0.058816776
129	0x3e1b6a41	0.15177251
130	0xbe4d3380	-0.20039177
131	0x3e9b63d4	0.303496
132	0xbe70c078	-0.23510921
133	0x3c04f3f4	0.008114804
134	0xbe7c2c6a	-0.24626318
135	0xbe78b2d8	-0.24286973
136	0xbe6e7266	-0.23285827
137	0x3b78e04e	0.0037975493
138	0xbd731aea	-0.05935184
139	0x3dbab768	0.09117013
140	0xbe856553	-0.26053867
141	0xbe5e7d16	-0.21727404
142	0xbda989b3	-0.08278217
143	0xbe2dd98f	-0.16977523
144	0xbe983abe	-0.29732317
145	0x3e9c8e01	0.3057709
146	0xbe4a1a83	-0.19736676
147	0xbc099d19	-0.008399271
148	0xbe5f4ff9	-0.21807851
149	0xbddec487	-0.10877328
150	0x3ce9a73f	0.028522132
151	0xbd22feb6	-0.039793693
152	0x3c78f59d	0.0151952775
153	0x3dae1bf3	0.08501425
154	0x3d7e1baa	0.0620381
155	0x3dd51121	0.10403658
156	0xbe130f37	-0.14361273
157	0xbd75d0f5	-0.06001373
158	0xbdcee1b2	-0.10101642
159	0x3e1092f1	0.14118554
160	0xbe2d711d	-0.1693768
161	0xbe41c218	-0.18921697
162	0x3bf440e0	0.0074540228
163	0x3e7e7c3c	0.24852079
164	0x3e45f679	0.19332303
165	0x3e8495f8	0.25895667
166	0x3ca3f7e5	0.020015666
167	0xbe2c168d	-0.16805477
168	0xbe261636	-0.1621941
169	0xbdadb21c	-0.08481237
170	0x3c9ff8fc	0.019527905
171	0xbd4d14ed	-0.050068785
172	0xbe8ef6eb	-0.27922758
173	0xbe3b8dd2	-0.18315819
174	0xbbeeb710	-0.0072850063
175	0xbd8f1c98	-0.06987876
176	0x3e1355d1	0.14388205
177	0x3d8b8076	0.06811611
178	0xbdc278c7	-0.09495693
179	0xbe2bb578	-0.16768444
180	0x3e54e97b	0.2079219
181	0xbc6f5fc7	-0.014610237
182	0xbe3bca27	-0.18338834
183	0x3e706929	0.23477615
184	0x3e2a3f68	0.1662575
185	0xbe2b3801	-0.16720583
186	0xbe237fa8	-0.15966666
187	0x3e26f88d	0.16305752
188	0x3e94189a	0.2892502
189	0x3e58607a	0.21130553
190	0x3e3636db	0.17794363
191	0x3da08434	0.07837716
192	0xbe1143ce	-0.14186022
193	0xbe9ad1af	-0.302381
194	0x3e3cad41	0.18425466
195	0xbcc53d22	-0.024077002
196	0x3dd03670	0.10166633
197	0xbd92995a	-0.07158156
198	0x3e64ee82	0.22356609
199	0x3db2968f	0.08720123
200	0xbda4a546	-0.08039336
201	0x3dddce07	0.10830312
202	0x3e768329	0.24073471
203	0xbe19b4ce	-0.15010378
204	0xbe2f7459	-0.17134227
205	0xbe09c75c	-0.13454956
206	0xbdb266f0	-0.0871104
207	0xbe806cb4	-0.25082934
208	0xbddb890b	-0.10719498
209	0xbd8d1b85	-0.068900146
210	0xbe33e143	-0.175664
211	0x3d327fde	0.043578975
212	0xbe6b8e8b	-0.23003595
213	0x3c917a77	0.017758591
214	0xbe624b82	-0.22099116
215	0xbda0cf61	-0.078520544
216	0xbe9789bc	-0.2959727
217	0xbdd80d22	-0.1054938
218	0xbe07a3d4	-0.13246089
219	0xbdb887f2	-0.090103045
220	0xbe3ce8eb	-0.18448226
221	0xbdde4bec	-0.10854325
222	0x3e18ed45	0.14934261
223	0x3dd6a70d	0.10481081
224	0xbd2658f3	-0.040612172
225	0xbddd21fc	-0.10797498
226	0xbd841557	-0.06449383
227	0xbd2a98a7	-0.041649487
228	0x3d6573f4	0.056018785
229	0x3e5e8996	0.21732172
230	0xbb637b16	-0.0034710816
231	0x3d29e893	0.041481566
232	0xbdc53245	-0.09628729
233	0xbe7c69d6	-0.24649748
234	0xbdcbba57	-0.09947651
235	0x3b0bc2ff	0.0021325944
236	0xbe3789e4	-0.17923695
237	0x3d8c27da	0.068435386
238	0xbe62ea38	-0.2215966
239	0x3df84f3b	0.12124487
240	0x3db30ab9	0.087422796
241	0x3d030042	0.031982668
242	0xbe6c8baf	-0.2310016
243	0x3e86fdc0	0.2636547
244	0xbdce457a	-0.10071845
245	0xbd6d8742	-0.05799032
246	0xbd7d1cb6	-0.06179496
247	0xbe88aae5	-0.26692882
248	0xbdf16746	-0.11787276
249	0xbdc80435	-0.097664274
250	0xbe4a1b17	-0.19736896
251	0xbe4361b8	-0.19080245
252	0xbd085331	-0.033282463
253	0x3e05da6f	0.13071607
254	0xbdd30a44	-0.103046924
255	0x3e6f748c	0.23384303

net.0.bias f4 [64]
0	0xbb1c7ce8	-0.002387816
1	0x3dec4984	0.115374595
2	0x3d55240a	0.052036323
3	0x3e7383c9	0.23780741
4	0xbd62f37b	-0.055407982
5	0x3d9382a2	0.072026506
6	0x3e68c861	0.22732688
7	0xbe1f8fb6	-0.15582165
8	0x3e20d9ec	0.1570813
9	0x3e86075e	0.26177496
10	0x3d44cbdd	0.04804598
11	0xbbaef555	-0.0053393045
12	0x3c4a7415	0.012356778
13	0xbe2e375b	-0.17013304
14	0x3e15b12f	0.14618371
15	0x3d86706e	0.06564413
16	0xba78be18	-0.00094887754
17	0x3e68f185	0.22748382
18	0x3e9571d9	0.2918842
19	0x3e5a8274	0.21338826
20	0xbddbe860	-0.107376814
21	0xbe2b21db	-0.16712134
22	0xbd374229	-0.04474083
23	0x3e6d2b3c	0.23161024
24	0x3dbb9a25	0.0916026
25	0xbdbb458b	-0.09144124
26	0xbdda315f	-0.10653948
27	0xbe089258	-0.13337076
28	0x3c727f13	0.014800805
29	0x3e54365f	0.20723866
30	0xbceb0da1	-0.028693022
31	0xbdb6f326	-0.08933096
32	0x3d678b0f	0.0565291
33	0x3e86616f	0.2624621
34	0xbe0f53c7	-0.13996802
35	0xbe76d3ae	-0.24104187
36	0xbdd45065	-0.103668965
37	0x3e71a66c	0.23598641
38	0x3e9a5649	0.30143955
39	0xbe589222	-0.21149495
40	0x3e39c559	0.18141688
41	0xbdead086	-0.11465554
42	0xbdd25b2a	-0.102712944
43	0x3e0047a9	0.12527336
44	0x3df811a7	0.12112742
45	0x3e710030	0.23535228
46	0x3c480b09	0.012209662
47	0xbe23259b	-0.15932314
48	0x3d7b41d0	0.06134206
49	0xbd859cb6	-0.06524031
50	0xbd27e6c3	-0.040991556
51	0x3e3fc3c1	0.18727018
52	0x39660458	0.00021936127
53	0x3e2c55b2	0.16829565
54	0xbd626340	-0.055270433
55	0x3d658db2	0.056043334
56	0x3e15f8fb	0.1464576
57	0xbd1bebe4	-0.03806676
58	0x3e9f55ea	0.31120235
59	0x3e4e302c	0.20135564
60	0xbe0fead1	-0.14054419
61	0x3dea2a1c	0.11433813
62	0x3ea705de	0.32621664
63	0xbcd76537	-0.02629338

net.2.weight f4 [64, 64]
0	0xbcca5a96	-0.024701398
1	0xbc22c06d	-0.009933573
2	0xbd949962	-0.07255818
3	0xbde4f2c2	-0.11179115
4	0xbc07a914	-0.008280057
5	0xbdb1cc29	-0.086815186
6	0xbdcc4572	-0.09974183
7	0x3ce17ef0	0.027526349
8	0x3d00593c	0.0313351
9	0xbe03ed0a	-0.12883392
10	0x3c02753d	0.007962522
11	0x3d1952e8	0.03743258
12	0x3c808e12	0.015692744
13	0x3d65b46e	0.056080274
14	0x3d801519	0.06254024
15	0x3cc7e1e0	0.024399698
16	0xbe0141bd	-0.12622733
17	0xbe0906cd	-0.133815
18	0xbc38a451	-0.011269645
19	0x3d79b25b	0.06096111
20	0xbb6d91c1	-0.0036250206
21	0xbd1a2278	-0.03763053
22	0xbd80388b	-0.06260785
23	0x3caffe0b	0.021483442
24	0xbdc84e3b	-0.09780546
25	0x3dc29d07	0.09502607
26	0x3d9af923	0.0756705
27	0xbd22e340	-0.039767504
28	0xbe0a0573	-0.13478641
29	0xbd99837b	-0.07495781
30	0xbd8af679	-0.06785292
31	0xbdc49771	-0.09599198
32	0x3d5735f0	0.052541673
33	0xbd6d7f87	-0.057982948
34	0xbde0c68c	-0.1097537
35	0x3cc349d5	0.023838917
36	0xbc2f6225	-0.010704552
37	0x3dafc013	0.08581557
38	0x3c36e5c3	0.011163178
39	0x3d97cc24	0.074119836
40	0xbcf2f1da	-0.02965634
41	0xbdb4f3bf	-0.088355534
42	0xbdddb95c	-0.1082637
43	0xbda822d3	-0.08209767
44	0x3daa0fd4	0.083038
45	0xbcbe77b3	-0.023250436
46	0x3c982707	0.018573297
47	0xbd7d7c96	-0.061886393
48	0xbcba8912	-0.022770438
49	0xbde32694	-0.110913426
50	0x3c19ed61	0.009394974
51	0x3b71c0de	0.003688864
52	0xbd3d5cde	-0.046231143
53	0x3d9f1596	0.07767789
54	0xbdeedf1b	-0.11663648
55	0xbc154890	-0.0091115385
56	0x3d95f895	0.07322804
57	0x3dbb3cf0	0.09142482
58	0x3d9a00c1	0.07519675
59	0xbd318b99	-0.04334602
60	0x3c61f1c7	0.013790554
61	0xbd5f3e33	-0.054502677
62	0x3dc51189	0.09622485
63	0xbd81178c	-0.06303319
64	0xbdc8932d	-0.097936966
65	0xbc9de2d7	-0.019273205
66	0xbcdda32a	-0.027055342
67	0x3d0cdfff	0.034393307
68	0x3bcc949b	0.006243301
69	0x3d847318	0.06467265
70	0xbc1b4707	-0.009477383
71	0x3dfd3d0f	0.12365162
72	0xbdcb3094	-0.09921375
73	0xbdd150be	-0.102204785
74	0xbc077d92	-0.008269684
75	0xbcb6ee3a	-0.022330392
76	0x3cdb98b1	0.026806207
77	0x3d3d3de1	0.04620159
78	0x3d9bcab8	0.07607025
79	0xbc7e507c	-0.015522119
80	0x3d52b03a	0.051437594
81	0x3c309148	0.010776825
82	0x3c38ca07	0.011278636
83	0xbdc3dbd0	-0.0956341
84	0x3d6d3679	0.057913277
85	0x3cbba92c	0.022907816
86	0x3c909d06	0.017653
87	0x3deff918	0.11717433
88	0x3c4fc5ed	0.0126814665
89	0xbd89d87d	-0.06730745
90	0x3cf63191	0.030052932
91	0xbe0945c1	-0.13405515
92	0xbe01625f	-0.12635182
93	0x3e3b4e02	0.18291476
94	0x3c61cdb4	0.013781954
95	0x3cb05cad	0.021528566
96	0x3deac373	0.1146306
97	0xbad463c2	-0.0016204047
98	0xbcb3625d	-0.02189749
99	0xbdde9eda	-0.10870142
100	0xbb462050	-0.0030231662
101	0x3d32bfbd	0.043639887
102	0xbc115fe0	-0.008872956
103	0xbdd67be3	-0.10472848
104	0xbd5e117d	-0.054215897
105	0x3e2564ec	0.1615178
106	0x3cb61549	0.022226946
107	0x3ca2cc45	0.019872794
108	0x3e0378cb	0.12839048
109	0x3d2d05c2	0.04224182
110	0xbc7eedba	-0.015559608
111	0xbd3e8774	-0.046515897
112	0x3e4ad3be	0.19807336
113	0xbce1fbf0	-0.027585953
114	0xbdae4789	-0.08509738
115	0x3d97450d	0.07386217
116	0xbd03fa38	-0.03222105
117	0x3e365fea	0.17810026
118	0x3cc5e72b	0.024158081
119	0xbdb1d48a	-0.08683117
120	0x3d2823bc	0.041049704
121	0xbd647762	-0.055777915
122	0x3c2f05fe	0.010682581
123	0x3e1f0483	0.15529065
124	0xbc434eeb	-0.011920671
125	0x3d0fcd16	0.035107695
126	0xbc0a73d7	-0.00845047
127	0x3daf6f2a	0.08566125
128	0x3dc39bea	0.095512226
129	0x3da7ef43	0.081999324
130	0x3c6f8344	0.0146186985
131	0x3d5a854f	0.05334979
132	0x3ddca2a5	0.107732095
133	0x3dd2fd3f	0.10302209
134	0x3c987e92	0.01861504
135	0x3da30ba4	0.07961205
136	0x3e1ae3ed	0.1512601
137	0xbd85adbf	-0.0652728
138	0xbc071c13	-0.0082464395
139	0x3d37f427	0.044910576
140	0xbdcd243e	-0.10016678
141	0xbd6ec2df	-0.058291312
142	0xbb8c9627	-0.0042903605
143	0xbc669874	-0.014074434
144	0x3d087e6e	0.033323698
145	0xbda2c9b7	-0.0794863
146	0xbdd283c5	-0.10279039
147	0x3e2329b0	0.15933871
148	0x3dd32d7b	0.10311409
149	0xbd549574	-0.051900342
150	0xbda00caa	-0.078149155
151	0xbdd8a627	-0.10578566
152	0x3dc4b1de	0.09604238
153	0xbd53d619	-0.05171785
154	0x3dda3f8a	0.1065665
155	0xbd4bc280	-0.049746037
156	0x3d6f12e1	0.058367614
157	0x3c6507bb	0.013978894
158	0xbbbfc75a	-0.005852622
159	0x3d939dfd	0.07207868
160	0xbd79e023	-0.06100477
161	0x3dd90cde	0.10598157
162	0x3baaf5ca	0.0052172886
163	0xbd3fe36a	-0.04684774
164	0x3c62e95a	0.013849581
165	0x3e1725db	0.14760534
166	0x3daa6eab	0.083218895
167	0xbaa55072	-0.0012612476
168	0xbd868af8	-0.06569475
169	0x3dab55c6	0.08365969
170	0xbd7925b1	-0.06082696
171	0xbd86100e	-0.06546031
172	0xbd01a118	-0.03164777
173	0x3e05615a	0.13025418
174	0xbc344a41	-0.011004032
175	0xbd750a06	-0.059824012
176	0xbdb3f130	-0.08786237
177	0x3dad7251	0.0846907
178	0xbdb6c22f	-0.08923756
179	0x3c343cb4	0.011000801
180	0xbce6e9d3	-0.028187668
181	0xbd2da872	-0.04239697
182	0xbda469a6	-0.08027963
183	0x3e2e4027	0.1701666
184	0x3d2abfe6	0.041686915
185	0xbd428a8b	-0.047495406
186	0xbb2e9a80	-0.0026642382
187	0xbcd6cfb7	-0.026222093
188	0x3ce8a7c4	0.02840031
189	0xbdc36306	-0.095403716
190	0xbd4214ad	-0.047383
191	0x3cddb211	0.027062448
192	0xbe170827	-0.14749204
193	0xbd8060da	-0.06268473
194	0xbdae45a4	-0.08509377
195	0x3da96e56	0.08272998
196	0xbdb7d670	-0.089764476
197	0x3e315897	0.1731895
198	0x3dcd3243	0.10019352
199	0x3d57cb33	0.05268402
200	0x3c87391e	0.016506728
201	0x3dabe5df	0.08393454
202	0xbda9ef47	-0.08297592
203	0xbca74637	-0.020419223
204	0x3e2f89b1	0.17142369
205	0x3da7db18	0.08196086
206	0xbc35b3af	-0.011090203
207	0x3d5211e8	0.051286608
208	0x3c5a803e	0.013336239
209	0x3e0acb37	0.13554083
210	0x3e3069a0	0.17227793
211	0xbdf5a37e	-0.11994074
212	0x3e18c2d0	0.14918065
213	0xbe0924e8	-0.13392985
214	0x3dc2347b	0.09482666
215	0x3db09780	0.08622646
216	0x3d16910e	0.03675943
217	0x3dcb9fc9	0.09942586
218	0x3da695c2	0.08134033
219	0x3d21a62f	0.039465126
220	0xbdea6420	-0.114448786
221	0x3e3d4d30	0.18486476
222	0x3c5375e1	0.0129065225
223	0xbd9fdea4	-0.07806137
224	0x3a15a98c	0.00057091634
225	0xbd6daaef	-0.058024343
226	0x3e253f36	0.16137394
227	0x3c8db704	0.017299183
228	0x3e2fb79d	0.17159887
229	0xbd9ac0ae	-0.07556282
230	0x3de738ef	0.11290156
231	0xbdaf0445	-0.08545736
232	0xbd428789	-0.047492538
233	0xbd3b3689	-0.045706306
234	0x3da6d5c8	0.08146244
235	0xbe2395a1	-0.15975048
236	0x3e1c38ed	0.1525609
237	0xbd006839	-0.031349394
238	0xbcad37b5	-0.021144727
239	0x3d50922d	0.050920654
240	0x3dd725df	0.1050527
241	0x3e317f1e	0.17333648
242	0xbd98cc8b	-0.074608885
243	0x3dd30bd3	0.1030499
244	0xbd756370	-0.059909284
245	0xbd0bee65	-0.034162898
246	0x3e1ecd8e	0.155081
247	0x3db3d9e7	0.08781796
248	0x3de601e2	0.11230828
249	0xbc53298e	-0.012888325
250	0x3d6d0ef5	0.057875592
251	0x3e225e9f	0.15856408
252	0xbe150f6f	-0.14556669
253	0x3d6cfed5	0.057860214
254	0x3e221c7a	0.15831175
255	0xbd3ff888	-0.046867877

net.2.bias f4 [64]
0	0xbe07f7b8	-0.13278091
1	0x3e4249ac	0.18973416
2	0xbd4d7999	-0.050164793
3	0x3d1fa86e	0.038978986
4	0x3d31c9d0	0.043405354
5	0xbd0f3686	-0.034964107
6	0xbd4245db	-0.0474299
7	0x3d60adee	0.054853372
8	0x3c73ee56	0.014888367
9	0x3de9944c	0.114052385
10	0x3e17600a	0.1478273
11	0x3dc8ea04	0.0981026
12	0x3d4c8804	0.049934402
13	0xbdce8947	-0.10084777
14	0xbd1675be	-0.03673338
15	0xbddc3231	-0.10751761
16	0x3d9a1bf9	0.075248666
17	0x3db87678	0.09006971
18	0xbd8832bc	-0.06650302
19	0x3c5d973b	0.013524826
20	0x3d1204ae	0.035648994
21	0x3db59bee	0.08867632
22	0xbd1f3a98	-0.03887424
23	0x3d22b5c8	0.03972414
24	0x3da48172	0.08032502
25	0x3dafc8a1	0.08583189
26	0xbc5655af	-0.013081952
27	0xbcca4d1a	-0.024694968
28	0x3d799802	0.06093598
29	0x3ddb1231	0.10696829
30	0x3d5b22ae	0.05349987
31	0xbc0221ce	-0.00794263
32	0x3d82664a	0.06367166
33	0x3c7b851f	0.015351563
34	0x3c7f6363	0.0155876605
35	0x3ca329a0	0.01991731
36	0x3a4c8420	0.00078016706
37	0xbc4d9561	-0.012547822
38	0xbd881fc1	-0.066466816
39	0x3d68a1d1	0.056794945
40	0xbcc0d0f0	-0.02353713
41	0x3d78a81b	0.060707193
42	0x3dede87c	0.116166085
43	0x3e1f07ae	0.15530273
44	0xbd1ddb96	-0.03853949
45	0x3da0e1a5	0.07855538
46	0x3d903d35	0.07042924
47	0x3dd5b5bd	0.104350545
48	0x3d868e12	0.065700665
49	0xbc0dc3a7	-0.008652604
50	0x3de54db1	0.11196459
51	0x3e339258	0.17536294
52	0xbd9d9f73	-0.07696428
53	0x3df3300a	0.11874397
54	0x3ccc69ce	0.024952795
55	0xbd1b3362	-0.0378908
56	0x3d2c4e00	0.042066574
57	0x3da6e3d7	0.08148926
58	0x3d3bf660	0.04588926
59	0x3e3c272f	0.18374322
60	0xbe0196ce	-0.12655184
61	0x3ddc68a4	0.10762146
62	0x3c55a84e	0.013040615
63	0xbdd9e461	-0.10639263

net.4.weight f4 [1, 64]
0	0x3dca7207	0.0988503
1	0x3df5d84f	0.12004148
2	0xbd9e312b	-0.07724222
3	0x3dcc9272	0.0998887
4	0xbe43efc7	-0.19134437
5	0xbe1760aa	-0.14782968
6	0x3dda179c	0.106490344
7	0x3e3bb07a	0.18329039
8	0xbe4b8cc3	-0.19877915
9	0xbe4378f8	-0.19089115
10	0x3e4efa68	0.2021271
11	0x3dc8587a	0.097825006
12	0xbd878844	-0.066177875
13	0x3daf26e0	0.08552337
14	0xbdfc875f	-0.123305075
15	0xbda9bc1d	-0.08287833
16	0xbd9576a9	-0.07298023
17	0xbe398e7b	-0.18120758
18	0xbe1a06e3	-0.1504169
19	0xbd7429d4	-0.059610203
20	0xbdb33089	-0.08749492
21	0xbdf8f0a0	-0.121552706
22	0xbe22d026	-0.15899715
23	0x3d517c4b	0.051143926
24	0x3e31b5e0	0.17354536
25	0x3e2237f0	0.15841651
26	0x3d8a6b63	0.06758764
27	0xbe165f26	-0.14684734
28	0xbe272227	-0.16321622
29	0x3e117e5a	0.14208356
30	0x3e41ddd9	0.18932284
31	0x3e218089	0.15771689
32	0xbdead61c	-0.11466619
33	0x3cb22b38	0.021749124
34	0xbe0dcb8c	-0.13847178
35	0xbe3fd023	-0.18731742
36	0x3e37598d	0.17905255
37	0xbded6bff	-0.11592864
38	0x3d7fdb77	0.062465157
39	0xbe4a5978	-0.19760692
40	0x3d96d4e5	0.07364825
41	0x3dee778b	0.11643895
42	0x3dfc6ee3	0.123258375
43	0x3e259aae	0.16172287
44	0xbd9b7ddb	-0.075923644
45	0x3e226cec	0.15861863
46	0xbe1db58a	-0.15401283
47	0x3d83865b	0.06422111
48	0xbe22c4a8	-0.15895331
49	0x3e4dcb3d	0.2009706
50	0x3df349fe	0.11879347
51	0x3e0044ca	0.12526241
52	0xbe289844	-0.16464335
53	0xbdac5ac4	-0.0841575
54	0xbdae483e	-0.08509873
55	0x3dff4aec	0.12465462
56	0xbdac0304	-0.08399013
57	0x3ddb99fc	0.107227296
58	0x3e05e590	0.13075852
59	0x3dc20f7b	0.09475609
60	0xbda80646	-0.082043216
61	0x3e1ce28c	0.15320796
62	0xbe014258	-0.12622964
63	0xbddb5d96	-0.107112095
