heuristic_net.pt (torch, 21513 bytes, 5 tensors)

net.0.weight f4 [64, 4]
-0.34345233 0.4674028 -0.09806453 0.11912998 -0.72656417 0.09205209 0.0071659763 0.28472275
-0.0154791465 0.55713695 -0.016156655 -0.5687248 0.4997617 -0.008481366 -0.50018424 -0.029080365
0.378287 0.05153359 -0.26831022 0.19633816 -0.02629568 0.25598302 -0.06479481 0.21960528
0.257131 -0.21013483 -0.31541964 0.09250634 -0.23804054 0.5088569 0.0026541962 -0.18197829
-0.10248977 0.004591346 -0.43876976 -0.2024889 -0.4551341 -0.36971635 -0.28238767 -0.023395121
0.20816644 0.33495066 -0.008659415 -0.5769648 0.22901435 -0.15761052 0.45087436 -0.52007455
-0.1476649 -0.12640038 0.41771173 -0.39440927 0.01895599 0.38061327 -0.24102093 -0.16720548
0.25402495 -0.4601727 -0.17732424 0.28971553 -0.44005167 -0.40978462 -0.19249517 -0.22620577
-0.21711963 0.24812986 0.117519304 -0.2721697 -0.2090219 0.53834856 0.16934906 -0.14817472
-0.38439175 -0.20129867 0.46953598 0.08678853 0.5147642 0.16107517 -0.06739307 -0.28802285
0.39436162 0.18007673 -0.4488227 -0.42911378 -0.073982574 -0.56867963 0.440886 0.06690263
0.27121088 0.2923078 0.14119156 -0.46052167 -0.1188741 0.21492094 0.23788346 0.0011198052
-0.19362555 -0.21869862 0.36708835 -0.007686712 0.27611852 -0.3016153 -0.39500394 0.30916035
0.27034253 0.053293053 -0.061842993 -0.5362968 -0.05373228 0.29478964 0.26080936 -0.034615103
0.013555371 0.38414493 0.3058268 -0.37363645 0.36361644 -0.2466811 -0.06838651 -0.07915191
-0.032958046 -0.05088643 -0.46855876 0.37881166 0.16518551 -0.31828177 0.50482094 -0.14356092
-0.14204031 -0.4908414 -0.40119696 -0.4582246 0.03154134 -0.23622285 -0.06628511 0.24796368
-0.3494638 0.21910064 0.15067485 0.16803117 -0.020339243 0.16075753 -0.46450213 0.4372413
-0.4348446 0.31427372 0.27577618 0.14845271 0.22762066 0.11915914 0.14490727 -0.18561162
0.13594228 0.11379505 -0.012147435 -0.111729644 -0.61085755 0.5827512 -0.06703853 -0.02063619
-0.4864106 -0.09470945 0.20458512 0.29192278 -0.012365523 0.2638433 0.011074979 -0.31161913
-0.07650775 -0.289719 -0.29773355 -0.32379502 0.27062368 0.17970277 -0.33767807 -0.22954004
-0.11235064 -0.28644866 -0.07135069 -0.38354832 0.06499462 -0.063152395 0.345295 -0.09955741
-0.2615344 -0.42741412 0.2015131 0.41080108 -0.23319072 0.59737176 -0.30168602 0.21650654
0.11824179 0.32048947 -0.7278753 -0.031702228 -0.60750264 0.080141194 0.6185676 -0.14200856
0.008066355 0.3873368 0.30128542 -0.24501786 -0.33450672 -0.50497425 0.62005925 -0.30748048
-0.0013203712 0.4501494 -0.05656503 -0.462707 0.07404444 -0.19721247 0.011385925 0.37608266
0.19986711 0.42583892 -0.33147016 -0.31407145 0.27673262 0.0027479555 -0.0022920745 0.101976044
0.13919646 0.24914226 0.046331946 0.15953122 -0.30853483 -0.18503948 0.04077882 0.4905532
-0.1351744 -0.4432945 -0.36222965 -0.048736047 -0.10082866 0.02738867 -0.2407104 0.58218116
-0.18445182 -0.35716522 -0.49283564 -0.252302 0.40567675 -0.0926519 0.056787286 -0.09021701
0.40342745 -0.5654165 0.0148980385 0.05967882 -0.35479233 -0.5054212 0.17217103 0.26905307
00000000: fcd8 afbe 6b4f ef3e 0ed6 c8bd 6bfa f33d
00000010: 1c00 3abf ce85 bc3d 91d0 ea3b 2ec7 913e
00000020: 3f9c 7dbc 87a0 0e3f f65a 84bc f397 11bf
00000030: c4e0 ff3e 6df5 0abc 130c 00bf f239 eebc
00000040: d5ae c13e e314 533d f55f 89be df0c 493e
00000050: 0a6a d7bc 3510 833e 24b3 84bd 35e0 603e
00000060: ada6 833e 962d 57be af7e a1be f773 bd3d
00000070: e6c0 73be 7244 023f 06f2 2d3b 8458 3abe
00000080: 28e6 d1bd 0073 963b 6ea6 e0be 4059 4fbe
00000090: 5607 e9be 764b bdbe 1e95 90be 20a7 bfbc
000000a0: 9529 553e a77e ab3e 38e0 0dbc f7b3 13bf
000000b0: bd82 6a3e a764 21be 01d9 e63e 9b23 05bf
000000c0: 7835 17be 1a6f 01be 50de d53e 03f0 c9be
000000d0: 9849 9b3c bedf c23e 31ce 76be ea37 2bbe
000000e0: 8f0f 823e c29b ebbe 7c94 35be 9855 943e
000000f0: 744e e1be 4acf d1be 741d 45be 7ca2 67be
00000100: 9c54 5ebe c115 7e3e f6ad f03d d459 8bbe
00000110: d609 56be 36d1 093f d769 2d3e 1dbb 17be
00000120: ffce c4be 3d21 4ebe 0567 f03e 2fbe b13d
00000130: 96c7 033f e4f0 243e 6105 8abd bb77 93be
00000140: c4e9 c93e 0966 383e 17cc e5be cdb4 dbbe
00000150: 2d84 97bd fd94 11bf cfbb e13e 3f04 893d
00000160: 27dc 8a3e 5ea9 953e 8594 103e 7fc9 ebbe
00000170: 4474 f3bd 3c14 5c3e b997 733e 6dc6 923a
00000180: c745 46be 88f2 5fbe 01f3 bb3e d0e0 fbbb
00000190: 685f 8d3e 526d 9abe f53d cabe 444a 9e3e
000001a0: 566a 8a3e d149 5a3d 144f 7dbd bf4a 09bf
000001b0: 6116 5cbd abee 963e ce88 853e 91c8 0dbd
000001c0: 5917 5e3c a5ae c43e 5595 9c3e 474d bfbe
000001d0: ef2b ba3e f899 7cbe 3a0e 8cbd 661a a2bd
000001e0: 04ff 06bd 4a6e 50bd efe6 efbe 9af3 c13e
000001f0: 6426 293e d4f5 a2be f23b 013f a201 13be
00000200: 0473 11be 904f fbbe b069 cdbe 6a9c eabe
00000210: 7e31 013d 67e4 71be 7dc0 87bd 31ea 7d3e
00000220: ebec b2be eb5b 603e 824a 1a3e 5d10 2c3e
00000230: 7c9e a6bc 9f9d 243e 39d3 edbe 17de df3e
00000240: f4a3 debe 7ce8 a03e 8932 8d3e fd03 183e
00000250: 6415 693e b509 f43d 9262 143e f910 3ebe
00000260: 7434 0b3e 610d e93d 0906 47bc 83d2 e4bd
00000270: 2961 1cbf 2f2f 153f 7f4b 89bd 3a0d a9bc
00000280: cf0a f9be 07f7 c1bd c37e 513e e776 953e
00000290: c398 4abc 7816 873e d473 353c 8b8c 9fbe
000002a0: 18b0 9cbd 0c56 94be 8870 98be 76c8 a5be
000002b0: 308f 8a3e 0104 383e 24e4 acbe 8b0c 6bbe
000002c0: 1818 e6bd 66a9 92be 5020 92bd 7260 c4be
000002d0: e61b 853d 0b56 81bd 82ca b03e c1e4 cbbd
000002e0: d6e7 85be 06d6 dabe 7359 4e3e 8554 d23e
000002f0: 8cc9 6ebe 5bed 183f 9776 9abe e4b3 5d3e
00000300: c028 f23d 3217 a43e 0956 3abf 32da 01bd
00000310: 4b85 1bbf 1121 a43d 725a 1e3f b16a 11be
00000320: bf28 043c 0251 c63e 1542 9a3e f6e5 7abe
00000330: 7744 abbe fe45 01bf 34bc 1e3f 156e 9dbe
00000340: 4e10 adba fb79 e63e bcb0 67bd efe7 ecbe
00000350: 9da4 973d 11f2 49be 088c 3a3c e88d c03e
00000360: f7a9 4c3e 8f07 da3e 75b6 a9be f9cd a0be
00000370: e6af 8d3e 0b17 343b a136 16bb d1d8 d03d
00000380: 8489 0e3e 261f 7f3e 91c6 3d3d 275c 233e
00000390: 47f8 9dbe fd7a 3dbe b107 273d ca29 fb3e
000003a0: 286b 0abe 7ff7 e2be 2a76 b9be 739f 47bd
000003b0: 427f cebd 345e e03c c97c 76be d309 153f
000003c0: f0e0 3cbe 5cde b6be f454 fcbe ba2d 81be
000003d0: ddb4 cf3e 48c0 bdbd c999 683d b2c3 b8bd
000003e0: 0b8e ce3e 23bf 10bf e716 743c c771 743d
000003f0: 57a7 b5be 4963 01bf 9a4d 303e 53c1 893e

net.0.bias f4 [64]
1.3796115 0.25978735 0.9395868 0.9023976 0.42583486 -2.7878137 1.9346482 -0.26218158
0.37340593 -0.044247568 -0.8418753 1.8111519 -0.089337215 1.5545956 1.6387986 -0.476847
1.0643225 -1.4787909 0.79644454 -0.5296008 2.221768 0.9280898 1.9243791 1.7144146
1.6796347 0.40615016 -0.62870514 -2.743095 2.2908487 1.583961 1.9457611 -1.678361
0.12468165 1.010132 -1.7814485 2.0464113 1.4513222 -2.3077695 2.1944616 0.7402032
0.56078404 1.8905884 -0.30604815 1.6733077 -0.48682195 -2.0422904 0.68424654 -1.6686984
-0.42652074 1.0289322 -2.3672838 1.2807406 2.080053 -0.38151717 0.75466996 -3.1240375
-0.011480556 1.1176242 0.37478116 -2.1239924 0.272601 -2.1383917 0.340238 -0.06684658
00000000: 1c97 b03f d902 853e c388 703f 8703 673f
00000010: 0707 da3e 8a6b 32c0 8da2 f73f aa3c 86be
00000020: 102f bf3e f03c 35bd 2485 57bf d3d3 e73f
00000030: 6ef6 b6bd fdfc c63f 27c4 d13f 4a25 f4be
00000040: b83b 883f 0549 bdbf cae3 4b3f eb93 07bf
00000050: 7231 0e40 4b97 6d3f 0e52 f63f f071 db3f
00000060: 45fe d63f eaf2 cf3e d2f2 20bf de8e 2fc0
00000070: 449d 1240 3cbf ca3f b30e f93f 89d4 d6bf
00000080: 1859 ff3d 014c 813f 8106 e4bf 67f8 0240
00000090: edc4 b93f 7fb2 13c0 0f72 0c40 f57d 3d3f
000000a0: 8b8f 0f3f cdfe f13f 58b2 9cbe f22e d63f
000000b0: ba40 f9be e3b4 02c0 c82a 2f3f e997 d5bf
000000c0: ed60 dabe 0db4 833f 9481 17c0 4fef a33f
000000d0: 971f 0540 3856 c3be 0d32 413f 3bf0 47c0
000000e0: f118 3cbc 4f0e 8f3f 51e3 bf3e 7eef 07c0
000000f0: 5c92 8b3e 69db 08c0 ad33 ae3e dce6 88bd

net.2.weight f4 [64, 64]
0.011477108 -0.010944271 0.08329594 0.22101262 -0.097528204 0.0030939179 0.20631158 0.13506973
0.10822329 -0.10367519 -0.1839352 -0.035088375 0.18031201 0.29984376 -0.00697259 0.016615003
0.2305849 0.017911036 0.2622344 -0.12680346 0.12178557 0.1129144 -0.035941817 0.1466303
0.34677866 0.012277859 -0.36709028 0.060172226 0.05967763 0.08894618 0.41183424 -0.13988507
0.11054799 0.12024965 0.09637951 0.27434367 0.15342973 -0.1574376 0.16140212 0.2298777
0.15872696 0.1681776 0.07613346 0.17075573 0.1139916 0.016822957 -0.07624843 -0.17943555
-0.26752 0.1209373 -0.01838338 0.38150954 0.29741353 -0.074491315 0.07231207 -0.17240097
-0.10208333 0.24439612 -0.050809406 -0.30569157 -0.015080959 -0.18232413 0.14449145 -0.124044634
0.0004931097 -0.0053860466 0.058600876 0.20570652 0.09730401 0.09565351 0.06326199 0.1713497
-0.09471753 -0.11983435 0.07059671 -0.061304834 0.007610103 0.15232182 0.05596724 -0.07456736
0.13326949 -0.000745286 0.056123663 0.040668327 0.13392277 0.11135653 -0.095934875 -0.016062796
0.101950735 -0.107801646 0.08161067 -0.0006637183 0.07579224 0.042804196 0.18739596 -0.09444519
0.06827529 0.20992374 0.051182475 0.15309608 0.159638 -0.10635012 0.14063986 0.009285144
-0.081809305 0.24348226 -0.05646482 0.13849676 -0.060649022 -0.03976099 0.079395324 0.03457391
-0.09462467 0.17054106 -0.07972983 0.2148945 0.21400966 -0.06720014 -0.037481368 0.10626209
0.024260027 0.326768 -0.025132123 0.08685685 -0.06792919 -0.13085394 0.044667933 -0.12829597
0.045193467 -0.08764797 0.10128111 0.18955943 -0.041239664 0.12930295 -0.0097765615 0.124769576
0.05582854 -0.032565087 0.0028694212 0.0057837926 -0.022802271 0.11420317 -0.05234305 0.009989113
0.17758517 0.092738174 -0.073598914 -0.08769588 0.17783014 0.040765896 0.12545542 -0.08783646
0.16602556 -0.108722046 -0.08545846 -0.010259659 0.13357784 -0.07342821 0.21890017 -0.08989034
-0.119638294 0.24565065 -0.06690929 0.18783087 0.17457075 -0.018775754 0.104928635 0.16406457
-0.009724179 0.22603762 -0.024757877 0.14526454 -0.024259806 -0.097939186 -0.015333676 0.037147783
-0.20348641 0.13245024 0.021136729 0.065353766 0.34168616 0.09987952 0.11584766 0.01417221
0.06799866 0.20601463 -0.099479064 -0.025940785 -0.08865689 -0.08016841 0.24480838 0.050929807
0.05157677 -0.045753308 0.104175255 0.12603956 -0.011982971 0.033382166 0.02214873 0.14228249
0.04184906 -0.10571714 0.050194208 -0.026423465 0.05744249 0.18300955 0.08126453 -0.09582518
0.17663683 -0.09134967 0.012041267 -0.12092866 0.059981693 -0.067995995 0.13042907 0.108958945
0.048262376 -0.049236946 -0.06374344 0.002714044 0.004701141 0.039572418 0.3152733 -0.031360216
-0.046887353 0.12714103 0.1473562 0.13721702 0.19872637 -0.006374193 0.036317866 0.24641155
-0.06573367 0.28737527 0.0051694214 -0.052340213 -0.0019650161 0.023018286 0.16853906 -0.080200456
-0.23047158 0.028318537 -0.0029047872 0.10642303 0.16530554 0.015702298 0.0402709 0.101573884
0.04682164 0.23748659 -0.07720653 -0.07687703 -0.03478323 0.0377748 0.2446812 0.015544051
00000000: 7b0a 3c3c 9a4f 33bc 1097 aa3d 2251 623e
00000010: debc c7bd 54c3 4a3b 5843 533e b84f 0a3e
00000020: 2ca4 dd3d a853 d4bd 8259 3cbe d4b8 0fbd
00000030: b6a3 383e 1f85 993e 537a e4bb 301c 883c
00000040: 731e 6c3e 2aba 923c 9643 863e c4d8 01be
00000050: b76a f93d aa3f e73d ba37 13bd 4126 163e
00000060: f98c b13e 1329 493c 42f3 bbbe 2777 763d
00000070: 8870 743d 6a29 b63d f0db d23e 083e 0fbe
00000080: fc66 e23d 7345 f63d 9f62 c53d c676 8c3e
00000090: af1c 1d3e 5237 21be 9946 253e 0f65 6b3e
000000a0: 5289 223e c036 2c3e dceb 9b3d 97da 2e3e
000000b0: 6e74 e93d 4cd0 893c 2328 9cbd f4bd 37be
000000c0: 62f8 88be faad f73d be98 96bc 3855 c33e
000000d0: 9646 983e e78e 98bd 5a18 943d e189 30be
000000e0: 1111 d1bd fa42 7a3e 861d 50bd 9b83 9cbe
000000f0: 2016 77bc 2db3 3abe 91f5 133e 1d0b febd
00000100: 0844 013a 6f7d b0bb 7907 703d bba4 523e
00000110: 5347 c73d fde5 c33d 818f 813d 4c76 2f3e
00000120: 44fb c1bd b66b f5bd 0295 903d c71a 7bbd
00000130: 2c5e f93b 40fa 1b3e e83d 653d c6b6 98bd
00000140: cc77 083e 4c5f 43ba ede1 653d d593 263d
00000150: 0d23 093e e40e e43d 8179 c4bd 2096 83bc
00000160: 8ccb d03d 1cc7 dcbd 7f23 a73d 62fd 2dba
00000170: f638 9b3d 7453 2f3d bae4 3f3e 7b6c c1bd
00000180: ead3 8b3d 40f6 563e b7a4 513d 38c5 1c3e
00000190: 2578 233e 17ce d9bd e503 103e b720 183c
000001a0: a38b a7bd 6a53 793e a847 67bd 18d2 0d3e
000001b0: 1c6b 78bd 6bdc 22bd 049a a23d 5f9d 0d3d
000001c0: 94ca c1bd 51a2 2e3e 6549 a3bd 4e0d 5c3e
000001d0: 5925 5b3e 3aa0 89bd 1086 19bd f09f d93d
000001e0: f7bc c63c 234e a73e e2e1 cdbc 01e2 b13d
000001f0: 761e 8bbd 93fe 05be b9f5 363d 0560 03be
00000200: c91c 393d c780 b3bd 786c cf3d de1b 423e
00000210: ecea 28bd fe67 043e df2d 20bc 3187 ff3d
00000220: 78ac 643d f862 05bd e60c 3c3b f885 bd3b
00000230: d4cb babc 5ae3 e93d aa65 56bd 60a9 233c
00000240: e3d8 353e 83ed bd3d 07bb 96bd e699 b3bd
00000250: 1b19 363e 24fa 263d 6377 003e 9ae3 b3bd
00000260: 9b02 2a3e aaa9 debd d804 afbd 2118 28bc
00000270: a1c8 083e 8861 96bd 5e27 603e 6d18 b8bd
00000280: ec04 f5bd d88b 7b3e bd07 89bd bc56 403e
00000290: adc2 323e 9ccf 99bc d3e4 d63d 8b00 283e
000002a0: 2a52 1fbc 6876 673e 08d1 cabc 3ac0 143e
000002b0: 80bc c6bc 5794 c8bd 193a 7bbc 4628 183d
000002c0: be5e 50be 09a1 073e ef26 ad3c 32d8 853d
000002d0: 7df1 ae3e a28d cc3d 8a41 ed3d 8f32 683c
000002e0: e242 8b3d 80f5 523e aebb cbbd c581 d4bc
000002f0: be91 b5bd 562f a4bd 0caf 7a3e c69b 503d
00000300: 2a42 533d d267 3bbd d659 d53d 8410 013e
00000310: 3954 44bc bdbb 083d 4171 b53c 80b2 113e
00000320: ec69 2b3d 3a82 d8bd 7198 4d3d 0676 d8bc
00000330: d148 6b3d db66 3b3e 056e a63d fe3f c4bd
00000340: 49e0 343e 8915 bbbd bc48 453c 72a9 f7bd
00000350: 5daf 753d 7c41 8bbd 338f 053e de25 df3d
00000360: c5ae 453d aeac 49bd ec8b 82bd 1ade 313b
00000370: 070c 9a3b b016 223d 816b a13e 9273 00bd
00000380: f40c 40bd 4231 023e 8be4 163e 9e82 0c3e
00000390: ed7e 4b3e 9bde d0bb 0bc2 143d 4f53 7c3e
000003a0: 609f 86bd da22 933e 4064 a93b b162 56bd
000003b0: 80c7 00bb d890 bc3c 8195 2c3e 2340 a4bd
000003c0: be00 6cbe 47fc e73c 3e5e 3ebb 51f4 d93d
000003d0: db45 293e 1ba2 803c 19f3 243d f805 d03d
000003e0: 0cc8 3f3d af2f 733e 751e 9ebd b471 9dbd
000003f0: dc78 0ebd c0b9 1a3d b58d 7a3e 7aac 7e3c

net.2.bias f4 [64]
0.9163422 0.65512455 0.5170298 0.48253265 0.056378745 -0.09979064 -0.10382141 1.0089445
0.97484946 1.3199292 -0.5773453 1.1915433 0.5378256 1.0316616 0.05726234 0.4071604
-0.13719086 0.6712538 0.4612005 0.5193927 0.663668 -1.8843375 0.0066833547 0.39625353
-0.034477547 -0.088713616 1.4864157 -0.03231938 0.5593348 0.9500075 1.2677313 -0.07832684
0.3367534 0.54105556 0.85493 0.06035338 1.0197266 0.235267 -0.65679485 1.2909375
-0.008202312 0.030246707 -0.080417745 0.64713556 -0.09207791 -0.20136221 -0.0018976629 1.0096675
-0.08520394 0.43130827 -0.13994977 0.9188406 0.5903742 0.599905 0.4085243 1.6776694
0.5319245 0.09451804 0.6998294 0.52699363 0.84237707 -0.11698159 1.0245752 -0.15549357
00000000: 6795 6a3f 3eb6 273f 115c 043f 850e f73e
00000010: 66ed 663d 095f ccbd 52a0 d4bd 1825 813f
00000020: bc8f 793f 71f3 a83f e7cc 13bf 7e84 983f
00000030: f0ae 093f 7d0d 843f ea8b 6a3d 5477 d03e
00000040: c37b 0cbe 4ad7 2b3f 7922 ec3e ecf6 043f
00000050: 25e6 293f f931 f1bf 0b00 db3b bee1 ca3e
00000060: 5438 0dbd 7caf b5bd df42 be3f 5461 04bd
00000070: 9130 0f3f b133 733f 0545 a23f d369 a0bd
00000080: f16a ac3e 9e82 0a3f b1dc 5a3f 1b35 773d
00000090: 6786 823f d5e9 703e b523 28bf 713d a53f
000000a0: fd62 06bc f1c7 f73c 0fb2 a4bd adaa 253f
000000b0: 5893 bcbd e531 4ebe 00bb f8ba c93c 813f
000000c0: 677f aebd 70d4 dc3e fe4e 0fbe 2339 6b3f
000000d0: c322 173f 6093 193f 192a d13e dfbd d63f
000000e0: 342c 083f ad92 c13d 0528 333f 0ee9 063f
000000f0: 06a6 573f 0b94 efbd 4825 833f b539 1fbe

net.4.weight f4 [1, 64]
0.16963963 0.05497726 0.054620087 0.1138363 -0.08443319 -0.033275455 0.04802495 0.33366507
0.18116899 0.54577327 -0.48138472 0.240716 0.14905916 -0.883413 0.027835084 0.06719233
-0.57384604 0.032769855 0.10635187 0.0968656 0.11591978 -0.7045934 -0.07137826 0.08126569
-0.028594015 -0.009353437 -1.5600427 -0.043855164 0.07607301 0.32785746 0.44542256 -0.004865073
0.08894033 0.27621827 0.34310588 -0.003499411 0.20220968 -0.5771922 -0.49593753 0.39754692
-0.03778771 -0.04991478 -0.3125483 0.119500026 -0.036915444 0.46800593 -0.11860685 0.4096609
0.09018443 0.052691545 -0.010293625 0.27349758 -0.74831593 0.39564267 0.08359283 -1.7624464
0.041996714 -0.03367768 0.1317382 -0.5297829 -0.8010436 0.009108816 -0.90526366 -0.049609162
00000000: 03b6 2d3e d62f 613d 50b9 5f3d 0223 e93d
00000010: 4feb acbd d84b 08bd cfb5 443d 26d6 aa3e
00000020: 5d84 393e ccb7 0b3f 0f78 f6be 417e 763e
00000030: f7a2 183e 5b27 62bf 6706 e43c 229c 893d
00000040: 93e7 12bf af39 063d 02cf d93d 7961 c63d
00000050: 5a67 ed3d 3c60 34bf c42e 92bd a06e a63d
00000060: ff3d eabc 293f 19bc 7baf c7bf 79a1 33bd
00000070: 2bcc 9b3d efdc a73e 6d0e e43e 316b 9fbb
00000080: 5926 b63d 7b6c 8d3e 93ab af3e 6056 65bb
00000090: 0e10 4f3e dec2 13bf 86eb fdbe 458b cb3e
000000a0: 49c7 1abd 7173 4cbd 5506 a0be 6ebc f43d
000000b0: a634 17bd 799e ef3e 26e8 f2bd 13bf d13e
000000c0: 9db2 b83d 17d3 573d 98a6 28bc e007 8c3e
000000d0: a291 3fbf ad91 ca3e b832 ab3d d897 e1bf
000000e0: bf04 2c3d 9bf1 09bd 61e6 063e da9f 07bf
000000f0: 3211 4dbf 253d 153c 5cbf 67bf fa32 4bbd
