heuristic_net_rich.pt (torch, 23193 bytes, 5 tensors)

net.0.weight f4 [64, 11]
0.25523078 -0.20969027 -0.0757492 -0.05891235 -0.14813314 0.3807118 -0.20530683 0.4529133
0.3317199 0.11281844 0.10470115 -0.3010424 0.1036851 -0.039063323 -0.09731907 0.14236625
-0.29153427 0.35317788 0.07117793 0.015081471 0.26892108 -0.12202134 -0.4800378 0.3292895
-0.20480919 -0.109166004 -0.058549788 0.35998052 0.33869362 0.030512504 0.1525099 0.42052653
-0.58605504 -0.21666667 0.16264479 -0.26069257 0.22886947 0.2643417 0.15573487 -0.07712093
0.24519618 -0.011604067 0.19185226 -0.004193112 0.044399824 0.3068395 -0.040251996 -0.26170528
0.0014497106 0.04470246 -0.32896098 -0.25857374 -0.17901675 0.22666606 0.46359956 -0.00954081
-0.09989213 0.12403185 0.16114423 -0.037147034 0.3183524 0.1936783 -0.16357318 0.22327322
0.039260216 -0.34495246 0.0038254363 -0.006665364 0.21518873 -0.0059238956 -0.001661311 0.25926003
-0.23224281 -0.08090654 -0.353153 -0.12125996 -0.07960192 -0.20270507 -0.12517375 0.29628873
0.17293808 -0.23142989 0.25788713 0.044461623 0.32993075 -0.18375473 0.104503326 -0.37288752
-0.25762904 -0.2596799 -0.2642217 -0.0010293691 0.10152672 -0.25474742 0.093362644 0.009729631
-0.218531 0.179475 -0.19396873 0.036954362 0.022635186 -0.059381027 0.22376482 0.13966806
-0.18996522 0.12884931 0.200009 -0.12879094 -0.32420543 -0.33985043 -0.0117489705 -0.075774
-0.33719242 -0.34251 0.1380194 0.2564952 0.33389172 0.30115536 -0.053212065 -0.22986108
0.15163742 0.09181102 0.090677924 -0.10862187 -0.18742712 -0.2386251 -0.11226634 0.030567612
-0.17183284 -0.115258306 -0.08589162 -0.25012043 0.11826411 -0.04828059 -0.19367652 -0.25249764
-0.12693505 -0.22056592 0.20055209 0.29468372 -0.15162617 -0.11392827 0.17306036 0.24610697
0.26798376 0.21422006 -0.10159566 -0.15034585 0.20751649 0.30832577 -0.21654885 -0.16240244
-0.36725768 -0.08018532 -0.028500127 -0.27694404 -0.120668486 0.26778454 -0.13648054 0.07403954
0.30287266 -0.22277214 -0.39447793 -0.080296256 0.21743149 0.055747412 -0.26357144 -0.21869679
0.20302975 -0.06783535 0.15681493 0.063693315 0.09466511 0.22326288 0.35359466 0.18622404
0.051774565 -0.04317126 0.25834405 -0.19962983 -0.26588872 -0.2600134 -0.26935798 -0.12896281
-0.07269502 0.20515278 0.25356072 -0.12377171 0.11204188 0.2688059 0.1840192 0.2769054
0.19773927 0.18391289 -0.07648508 -0.17047079 -0.03359666 -0.24865922 0.24837886 0.34092063
-0.19283603 0.25144926 -0.028633691 -0.028797438 0.33640987 0.12656236 0.25333694 -0.017209534
-0.04370106 -0.0861182 0.19271448 0.17871264 -0.26165658 -0.14698553 -0.12800738 0.63444626
0.7201323 0.45112246 0.32880828 -0.2873258 -0.0134404395 -0.09792192 -0.1954208 0.05787411
0.026784977 -0.16934398 0.11891557 0.07999863 0.1223855 0.009337092 0.038923383 -0.2568002
0.14210154 0.14167935 0.015200275 0.15407658 -0.07304072 0.15073729 0.074513055 0.25893113
0.078728035 -0.2718917 0.36988673 -0.11113784 -0.18185163 -0.101942115 -0.109648295 0.3046026
-0.22399719 0.111823626 0.10748515 0.35850242 0.22922121 -0.1590068 0.01100808 0.18068804
00000000: 9cad 823e 0cb9 56be 6622 9bbd 144e 71bd
00000010: 37b0 17be a8ec c23e f43b 52be 41e4 e73e
00000020: 31d7 a93e 5b0d e73d 8e6d d63d 3b22 9abe
00000030: db58 d43d dd00 20bd 384f c7bd 75c8 113e
00000040: fb43 95be bbd3 b43e bcc5 913d 4618 773c
00000050: 06b0 893e 53e6 f9bd 84c7 f5be a298 a83e
00000060: 80b9 51be 6d92 dfbd e7d1 6fbd 5e4f b83e
00000070: 4069 ad3e 5cf5 f93c 8e2b 1c3e 414f d73e
00000080: b407 16bf dedd 5dbe 5b8c 263e 7f79 85be
00000090: c25c 6a3e cc57 873e f678 1f3e 94f1 9dbd
000000a0: b514 7b3e fc1e 3ebc eb74 443e 5f66 89bb
000000b0: 97dc 353d 111a 9d3e 47df 24bd 3cfe 85be
000000c0: 3704 be3a ed19 373d 936d a8be c763 84be
000000d0: 2b50 37be 261b 683e ec5c ed3e 0f51 1cbc
000000e0: 3f94 ccbd 6904 fe3d fe02 253e 7d27 18bd
000000f0: 16ff a23e 9b53 463e ba7f 27be bca1 643e
00000100: 52cf 203d 9c9d b0be 2cb4 7a3b 2069 dabb
00000110: 6f5a 5c3e 3d1d c2bb 59c0 d9ba bbbd 843e
00000120: 0fd1 6dbe 54b2 a5bd 78d0 b4be 2457 f8bd
00000130: 5506 a3bd eb91 4fbe 8c2d 00be 28b3 973e
00000140: ae16 313e f5fb 6cbe c809 843e 641d 363d
00000150: afec a83e 332a 3cbe d705 d63d 1deb bebe
00000160: f4e7 83be c4f4 84be 1148 87be e5eb 86ba
00000170: 3eed cf3d 416e 82be ea34 bf3d 0869 1f3c
00000180: 97c6 5fbe 4bc8 373e bd9f 46be 755d 173d
00000190: 6d6d b93c 8539 73bd 9b22 653e 2505 0f3e
000001a0: 3e86 42be 13f1 033e 29cf 4c3e c6e1 03be
000001b0: 41fe a5be e000 aebe c17e 40bc 662f 9bbd
000001c0: 7ca4 acbe 795d afbe f554 0d3e 5753 833e
000001d0: dbf3 aa3e 0931 9a3e e5f4 59bd b460 6bbe
000001e0: d746 1b3e 6b07 bc3d 59b5 b93d 2575 debd
000001f0: e5ec 3fbe 235a 74be e5eb e5bd ee68 fa3c
00000200: f3f4 2fbe 8c0c ecbd f2e7 afbd c90f 80be
00000210: 7434 f23d dec1 45bd 2353 46be 5f47 81be
00000220: 43fb 01be 08dc 61be 875d 4d3e c9e0 963e
00000230: e443 1bbe 3a53 e9bd bc36 313e 7703 7c3e
00000240: 2b35 893e 815c 5b3e 6311 d0bd 43f4 19be
00000250: 347f 543e e0dc 9d3e fbbe 5dbe d34c 26be
00000260: 3309 bcbe 3338 a4bd 1979 e9bc 9ccb 8dbe
00000270: 0a21 f7bd 0e1b 893e 8ec1 0bbe 0ba2 973d
00000280: 2012 9b3e 611e 64be 03f9 c9be 5d72 a4bd
00000290: 5ca6 5e3e 6657 643d d6f2 86be 0df2 5fbe
000002a0: 08e7 4f3e 43ed 8abd 1894 203e a471 823d
000002b0: c8df c13d 069f 643e 5c0a b53e 84b1 3e3e
000002c0: 9111 543d 59d4 30bd ac45 843e c36b 4cbe
000002d0: 9122 88be 7a20 85be 4ae9 89be d40e 04be
000002e0: 20e1 94bd 9213 523e b6d2 813e 067c fdbd
000002f0: 3776 e53d eda0 893e 876f 3c3e 8bc6 8d3e
00000300: 2a7c 4a3e a953 3c3e 36a4 9cbd e58f 2ebe
00000310: a79c 09bd 86a0 7ebe 0757 7e3e 268d ae3e
00000320: cf76 45be f5bd 803e 3491 eabc 9be8 ebbc
00000330: ea3d ac3e 9099 013e 61b5 813e 02fb 8cbc
00000340: e2ff 32bd bd5e b0bd f256 453e 7200 373e
00000350: daf7 85be 6083 16be 5e14 03be 126b 223f
00000360: 975a 383f 86f9 e63e 8f59 a83e 5e1c 93be
00000370: 4a35 5cbc 4a8b c8bd 641c 48be 670d 6d3d
00000380: 2b6c db3c 8268 2dbe 028a f33d 52d6 a33d
00000390: 40a5 fa3d 9afa 183c 206e 1f3d 517b 83be
000003a0: 1183 113e 6414 113e 930a 793c 40c6 1d3e
000003b0: 5f96 95bd e05a 1a3e 4d9a 983d 9f92 843e
000003c0: 2a3c a13d 6435 8bbe cb61 bd3e 3c9c e3bd
000003d0: 5037 3abe 07c7 d0bd 498f e0bd dff4 9b3e
000003e0: 855f 65be c903 e53d 2d21 dc3d a18d b73e
000003f0: f7b8 6a3e aed2 22be 3c5b 343c 4906 393e

net.0.bias f4 [64]
0.2489303 -0.092878215 -0.115605205 -0.17286831 -0.3543726 0.33191216 0.18749337 0.0010515518
0.26071936 -0.17322816 0.2973045 -0.24117582 -0.18521333 -0.10445034 0.23215163 0.3530188
-0.18728465 -0.04461939 -0.16524692 0.3067716 -0.31128734 0.25511372 0.23172086 -0.041371137
-0.10925034 -0.26640394 0.23339061 -0.037815403 0.12125988 -0.116210915 -0.24531169 -0.26509982
-0.25485766 0.13996488 0.027053092 -0.18672898 0.1972198 -0.014468949 0.19595315 0.06748249
-0.15869763 -0.24008162 -0.15575342 0.31459287 -0.0023656574 -0.10780709 0.112253994 -0.18172932
0.00094044144 0.37473506 -0.20983727 0.04634675 -0.061294902 -0.14711674 -0.21845691 0.20621978
0.34708935 0.07053146 0.20686811 -0.1604819 -0.2533437 0.018258912 -0.17058247 -0.17859487
00000000: 96e7 7e3e ef36 bebd 6cc2 ecbd 6404 31be
00000010: 5370 b5be 64f0 a93e 43fe 3f3e 39d4 893a
00000020: 027d 853e b962 31be 4c38 983e cbf6 76be
00000030: 90a8 3dbe 0fea d5bd 28b9 6d3e e1be b43e
00000040: 8cc7 3fbe d2c2 36bd 7d36 29be 2b11 9d3e
00000050: 0e61 9fbe 449e 823e 3c48 6d3e c874 29bd
00000060: a4be dfbd 1966 88be f3fd 6e3e 53e4 1abd
00000070: 1a57 f83d fdff edbd fd32 7bbe 2abb 87be
00000080: b47c 82be f452 0f3e 729e dd3c e235 3fbe
00000090: fdf3 493e 2c0f 6dbc f1a7 483e 4234 8a3d
000000a0: a281 22be f5d7 75be d37d 1fbe 5112 a13e
000000b0: 2509 1bbb f7c9 dcbd 6ce5 e53d 4017 3abe
000000c0: f587 763a 46dd bf3e 95df 56be 17d6 3d3d
000000d0: 5d10 7bbd c5a5 16be 2bb3 5fbe 472b 533e
000000e0: b2b5 b13e cc72 903d 3cd5 533e 5e55 24be
000000f0: 44b6 81be b793 953c 2cad 2ebe 93e1 36be

net.2.weight f4 [64, 64]
-0.047465414 0.09721157 0.06517796 0.04645001 -0.12470223 -0.089723766 -0.05773807 -0.08265271
0.031132996 0.02092042 -0.013828948 0.015975729 0.03786592 -0.010096526 0.010165557 -0.06361918
0.011155024 -0.06342513 -0.07252226 0.07227518 -0.03085211 0.067281365 0.0997913 0.0020020092
-0.0807573 0.04465954 0.048530586 0.05104415 -0.11323415 -0.078144535 0.09178154 0.11589852
-0.023217678 -0.12848306 -0.031687953 0.011197948 -0.12157606 0.10302951 -0.10551204 0.012835324
-0.027515769 0.06345005 0.035983756 -0.08243239 0.123809874 -0.12121506 0.0063721687 -0.07986861
0.059264407 -0.041999105 -0.024843019 0.11623725 -0.09728898 -0.051830154 0.024196986 0.016410872
0.02429505 0.08341491 0.016358038 0.031215617 0.026521802 0.010416699 -0.056237087 0.042583045
0.10205115 0.09090333 0.075100265 0.107461765 -0.12500958 0.10392577 -0.10278623 -0.07132165
-0.07173742 0.020972341 -0.1020057 0.054798648 -0.089766085 0.07855312 0.06923021 -0.06887953
-0.1006939 -0.101832986 0.08277196 0.09077338 0.004187539 0.1093081 -0.09379731 0.03731151
-0.0088234395 0.027223468 -0.06035209 -0.0587997 -0.11318712 -0.04998727 -0.05602381 0.10458182
-0.06776987 -0.05921451 -0.10256156 0.06532228 -0.00048673153 -0.0043636262 0.097231165 -0.07015269
-0.0675011 -0.013099477 0.0028039664 -0.080846176 0.08177647 0.09201169 0.10641561 -0.033337727
0.017707214 -0.077952586 -0.06651374 0.11988625 0.024897903 -0.114095286 -0.030514449 0.05887088
-0.09936637 -0.023347218 -0.11673828 0.017841473 0.090881824 -0.07709837 0.032070935 -0.077083096
0.084449776 -0.16861048 0.09010238 -0.046666842 -0.18827194 -0.06531014 0.09755887 -0.05204675
-0.01872577 0.005440009 0.036516372 0.07963814 0.11722596 0.06393534 0.081565194 0.20542434
0.092286766 0.08073017 0.09222839 0.2589496 -0.055871986 -0.11024504 -0.0072882148 0.09028049
0.016076427 -0.062813126 0.039949764 -0.009612352 0.0577385 0.0909089 -0.05687059 0.119135
0.035833985 -0.05339348 0.0670831 0.035376057 -0.07199373 -0.016354417 0.018589327 -0.043038227
-0.0092365835 0.11152221 -0.15206392 -0.22413394 -0.038748115 -0.03870191 -0.22306974 -0.03961067
0.121758424 0.09387129 0.08518657 0.04165317 0.10490951 0.03773379 -0.009495141 -0.07853457
0.06229258 0.025992962 0.07732233 -0.08289563 -0.10687269 0.15608637 0.068702064 -0.0034855762
0.09910156 -0.16993159 0.09199503 -0.017008927 -0.17802428 0.026979813 0.002368293 0.01084724
0.06407072 -0.018960966 0.13725153 0.11187586 0.020212218 0.07900631 0.1675701 0.14595065
0.11093931 -0.09132877 0.114722684 0.3645466 0.105777934 0.06653356 -0.02982451 0.1481306
0.04118739 -0.13324963 0.08064921 0.040314376 0.10757527 -0.025412021 -0.17494392 0.03211715
0.116137005 -0.03553468 -0.070086546 0.098614335 0.11981497 0.026081428 -0.064746216 0.03153554
-0.024014622 0.13709396 -0.21807499 -0.23084939 -0.07143578 0.10191578 -0.25776747 0.08020651
-0.02603314 0.08995376 0.04372676 -0.018459797 0.04621783 -0.065496735 -0.0249457 -0.111800104
0.093483426 0.112488 0.000110224675 -0.014579845 -0.02254939 0.15230453 0.11854899 0.15756476
00000000: 186b 42bd dc16 c73d 067c 853d 5e42 3e3d
00000010: e263 ffbd 18c1 b7bd c17e 6cbd d345 a9bd
00000020: a00a ff3c 4d61 ab3c d092 62bc 88df 823c
00000030: 4c19 1b3d e66b 25bc 708d 263c c64a 82bd
00000040: 90c3 363c 09e5 81bd 8d86 94bd 0205 943d
00000050: 90bd fcbc d0ca 893d 625f cc3d 2434 033b
00000060: 1564 a5bd ecec 363d 02c8 463d ac13 513d
00000070: 4ee7 e7bd 3e0a a0bd f6f7 bb3d 345c ed3d
00000080: 0033 bebc 1091 03be 3acb 01bd 9977 373c
00000090: dffc f8bd 2301 d33d b216 d8bd 404b 523c
000000a0: c068 e1bc 1af2 813d b463 133d 50d2 a8bd
000000b0: 0890 fd3d 9a3f f8bd a0cd d03b 2792 a3bd
000000c0: 3cbf 723d 4107 2cbd 9683 cbbc cc0d ee3d
000000d0: 723f c7bd db4b 54bd c238 c63c 1870 863c
000000e0: 6a06 c73c 70d5 aa3d 4b01 863c e5b7 ff3c
000000f0: 4044 d93c cdaa 2a3c dc58 66bd 8f6b 2e3d
00000100: 3100 d13d 862b ba3d 2bce 993d ea14 dc3d
00000110: 8302 00be 09d7 d43d 9681 d2bd 1611 92bd
00000120: 12eb 92bd 30ce ab3c 5de8 d0bd 8c74 603d
00000130: 48d7 b7bd 75e0 a03d 91c8 8d3d b610 8dbd
00000140: 9a38 cebd d08d d0bd 5884 a93d 65e7 b93d
00000150: a037 893b eddc df3d ce18 c0bd f4d3 183d
00000160: 3090 10bc c003 df3c c133 77bd f4d7 70bd
00000170: a6ce e7bd 74bf 4cbd 3979 65bd fe2e d63d
00000180: eeca 8abd ea8a 72bd cc0b d2bd b0c7 853d
00000190: 0030 ffb9 c0fc 8ebb 2221 c73d 37ac 8fbd
000001a0: 043e 8abd 309f 56bc c0c2 373b ae92 a5bd
000001b0: 6c7a a73d a070 bc3d 6df0 d93d 248d 08bd
000001c0: b80e 913c 9ba5 9fbd 5b38 88bd ec86 f53d
000001d0: b0f6 cb3c caaa e9bd 70f9 f9bc 9822 713d
000001e0: 9880 cbbd aa42 bfbc 7b14 efbd 4828 923c
000001f0: 4020 ba3d c0e5 9dbd d05c 033d bedd 9dbd
00000200: 01f4 ac3d 3aa8 2cbe 9987 b83d bb25 3fbd
00000210: 5cca 40be 53c1 85bd f2cc c73d f92e 55bd
00000220: c966 99bc 1a42 b23b 3192 153d 5219 a33d
00000230: 2a14 f03d 88f0 823d a70b a73d c25a 523e
00000240: d800 bd3d dc55 a53d 3de2 bc3d 0b95 843e
00000250: 06da 64bd 27c8 e1bd fad1 eebb fae4 b83d
00000260: b6b2 833c 2ba4 80bd 5da2 233d 207d 1dbc
00000270: 357f 6c3d 722e ba3d 23f1 68bd 0dfd f33d
00000280: a8c6 123d 1fb3 5abd dd62 893d 7ce6 103d
00000290: 7371 93bd b3f9 85bc a548 983c da48 30bd
000002a0: 0a55 17bc c265 e43d a5b6 1bbe 5e83 65be
000002b0: 58b6 1ebd e585 1ebd 656c 64be cc3e 22bd
000002c0: 7b5c f93d 973f c03d 4c76 ae3d 849c 2a3d
000002d0: ccda d63d bf8e 1a3d 8291 1bbc bcd6 a0bd
000002e0: 8126 7f3d 31ef d43c 2b5b 9e3d 2fc5 a9bd
000002f0: 12e0 dabd 1bd5 1f3e abb3 8c3d 446e 64bb
00000300: c2f5 ca3d 8c02 2ebe e467 bc3d 4e56 8bbc
00000310: ff4b 36be c504 dd3c 5d35 1b3b 9fb8 313c
00000320: 8237 833d 0754 9bbc aa8b 0c3e 2c1f e53d
00000330: 1894 a53c 0fce a13d 7f97 2b3e 1674 153e
00000340: 2634 e33d 940a bbbd baf3 ea3d daa5 ba3e
00000350: 1aa2 d83d bf42 883d 8852 f4bc 8caf 173e
00000360: 1cb4 283d 9772 08be 6a2b a53d b020 253d
00000370: 6c50 dc3d df2c d0bc 8024 33be 468d 033d
00000380: 3dd9 ed3d d08c 11bd 8989 8fbd 50f6 c93d
00000390: 8d61 f53d b8a8 d53c aa99 84bd 692b 013d
000003a0: 50ba c4bc 5c62 0c3e 0d4f 5fbe c863 6cbe
000003b0: ec4c 92bd 38b9 d03d 19fa 83be 5043 a43d
000003c0: 7443 d5bc ad39 b83d d51a 333d 0039 97bc
000003d0: e84e 3d3d 2723 86bd ed5a ccbc 74f7 e4bd
000003e0: 3d74 bf3d 1c60 e63d 6c28 e738 4de0 6ebc
000003f0: 80b9 b8bc b8f5 1b3e d0c9 f23d a858 213e

net.2.bias f4 [64]
0.07990636 -0.025141347 -0.08385187 0.15263137 0.13886064 -0.12707137 0.10794451 -0.06409056
-0.005618156 -0.10131827 -0.09145127 -0.056918785 0.07265802 -0.007746824 -0.14392847 -0.109196566
0.0074353404 0.04737581 -0.05468683 0.04997868 -0.07651013 -0.089771755 0.14278066 -0.08071954
0.052842036 -0.023540001 0.0511326 0.14597781 -0.057102557 -0.12027271 0.12544648 -0.045355484
0.093783565 -0.10567558 0.016897837 0.05567271 -0.12087432 0.044738967 -0.058192056 -0.012546695
-0.002020017 0.10867757 0.10913633 0.13966356 -0.10309295 -0.07492058 0.046594337 0.11287305
0.08124217 0.009485296 -0.138479 -0.00053495675 -0.04932735 -0.012832028 0.021206746 0.15321308
-0.055215914 0.102334306 -0.003933658 -0.0044074585 -0.11230723 0.029323265 -0.09792842 0.02819734
00000000: f2a5 a33d 3af5 cdbc 87ba abbd 664b 1c3e
00000010: 7c31 0e3e ff1e 02be 0312 dd3d e941 83bd
00000020: 8218 b8bb f47f cfbd ce4a bbbd ac23 69bd
00000030: bacd 943d 12d9 fdbb fc61 13be 73a2 dfbd
00000040: 28a4 f33b 230d 423d 4cff 5fbd 72b6 4c3d
00000050: 58b1 9cbd 41da b7bd 1835 123e 4950 a5bd
00000060: e470 583d f6d6 c0bc 6b70 513d 357b 153e
00000070: 5fe4 69bd 8a51 f6bd 0b75 003e acc6 39bd
00000080: 9911 c03d 706c d8bd 556d 8a3c 1109 643d
00000090: f58c f7bd 3540 373d cb5a 6ebd a790 4dbc
000000a0: 4362 04bb 5992 de3d de82 df3d f703 0f3e
000000b0: 6622 d3bd f66f 99bd b4d9 3e3d fc29 e73d
000000c0: 4b62 a63d 3768 1b3c 70cd 0dbe 573c 0cba
000000d0: 7a0b 4abd 6d3d 52bc c5b9 ad3c e4e3 1c3e
000000e0: 152a 62bd a694 d13d eae5 80bb 716c 90bb
000000f0: 5501 e6bd 5837 f03c b28e c8bd 1cfe e63c

net.4.weight f4 [1, 64]
0.004402273 -0.04157079 0.064490184 0.04794932 0.045869656 -0.04196377 -0.07795984 0.03951835
-0.11368246 0.05780107 0.083409354 -0.14613117 0.12647313 0.06848395 -0.16187602 0.115075715
0.0955716 -0.08476117 0.08094822 -0.016455937 0.039213628 0.09195747 0.04453622 -0.2641981
-0.20096426 0.06754752 0.14874436 0.03770584 0.122261494 -8.741021e-05 -0.018072125 -0.002948448
0.14661278 0.08331776 0.021489538 0.048410572 0.003406792 -0.09720894 -0.16401294 0.10651488
-0.06438742 -0.075550646 0.1098366 -0.30480486 -0.071731314 0.022704676 -0.08222148 0.073256835
0.08091246 -0.0769204 -0.04763677 0.1196914 0.114289805 0.08896007 0.10665564 -0.21851523
0.0370788 0.13838755 0.15678108 0.12753597 -0.04257965 0.03605413 0.06457675 0.10126705
00000000: f140 903b 2246 2abd 6e13 843d 8266 443d
00000010: d2e1 3b3d 34e2 2bbd 69a9 9fbd fedd 213d
00000020: 59d2 e8bd d1c0 6c3d 86d2 aa3d 69a3 15be
00000030: 2c82 013e 5041 8c3d d4c2 25be d1ac eb3d
00000040: 0bbb c33d 4497 adbd 2ec8 a53d 9ace 86bc
00000050: 789e 203d 3354 bc3d 9d6b 363d f944 87be
00000060: 93c9 4dbe 5b56 8a3d 7150 183e 7071 1a3d
00000070: 3c64 fa3d 0050 b7b8 fe0b 94bc c03a 41bb
00000080: a921 163e 80a2 aa3d d40a b03c 2a4a 463d
00000090: 7c44 5f3b 7b15 c7bd 02f3 27be 7924 da3d
000000a0: 8ddd 83bd 4cba 9abd 03f2 e03d 620f 9cbe
000000b0: dee7 92bd 28ff b93c bc63 a8bd ae07 963d
000000c0: 6fb5 a53d 7188 9dbd c61e 43bd c420 f53d
000000d0: c610 ea3d b230 b63d 466e da3d 75c2 5fbe
000000e0: f1df 173d 77b5 0d3e 388b 203e ca98 023e
000000f0: 0068 2ebd 7fad 133d d140 843d 1965 cf3d
